
BestModel Model Summary:
Model: "sequential"
_________________________________________________________________
 Layer (type)                Output Shape              Param #   
=================================================================
 bidirectional (Bidirectiona  (None, 10, 512)          729088    
 l)                                                              
                                                                 
 dropout (Dropout)           (None, 10, 512)           0         
                                                                 
 bidirectional_1 (Bidirectio  (None, 640)              2132480   
 nal)                                                            
                                                                 
 dropout_1 (Dropout)         (None, 640)               0         
                                                                 
 dense (Dense)               (None, 96)                61536     
                                                                 
 dropout_2 (Dropout)         (None, 96)                0         
                                                                 
 dense_1 (Dense)             (None, 7)                 679       
                                                                 
=================================================================
Total params: 2,923,783
Trainable params: 2,923,783
Non-trainable params: 0
_________________________________________________________________

BestModel Training History:
loss: [… accuracy: [… val_loss: [… val_accuracy: [… lr: [… 1e-06, 1e-06, 1e-06, 1e-06, 1e-06, 1e-06, 1e-06, 1e-06, 1e-06, 1e-06, 1e-06, 1e-06, 1e-06, 1e-06, 1e-06, 1e-06, 1e-06, 1e-06, 1e-06, 1e-06, 1e-06, 1e-06, 1e-06]
…
