
LSTM Shuffled Model Summary:
Model: "sequential_1"
_________________________________________________________________
 Layer (type)                Output Shape              Param #   
=================================================================
 lstm_2 (LSTM)               (None, 10, 64)            41984     
                                                                 
 lstm_3 (LSTM)               (None, 10, 96)            61824     
                                                                 
 lstm_4 (LSTM)               (None, 224)               287616    
                                                                 
 dense_2 (Dense)             (None, 128)               28800     
                                                                 
 dropout_1 (Dropout)         (None, 128)               0         
                                                                 
 dense_3 (Dense)             (None, 7)                 903       
                                                                 
=================================================================
Total params: 421,127
Trainable params: 421,127
Non-trainable params: 0
_________________________________________________________________

LSTM Shuffled Training History:
loss: [… accuracy: [… val_loss: [… val_accuracy: [… LSTM Shuffled Tuning Information:
Hyperparameters: {'num_lstm_layers': 3, 'lstm_units_0': 64, 'dense_units': 128, 'l1_reg': 1.199898645030084e-05, 'l2_reg': 0.00024355157961146942, 'dropout': 0.4, 'optimizer': 'adam', 'learning_rate': 0.0007781436518320102, 'lstm_units_1': 96, 'lstm_units_2': 224, 'lstm_units_3': 192, 'tuner/epochs': 10, 'tuner/initial_epoch': 4, 'tuner/bracket': 1, 'tuner/round': 1, 'tuner/trial_id': '0018'}
Score: 0.6975832581520081

RLR LSTM Model Summary:
Model: "sequential_1"
_________________________________________________________________
 Layer (type)                Output Shape              Param #   
=================================================================
 lstm_2 (LSTM)               (None, 10, 256)           364544    
                                                                 
 dropout_3 (Dropout)         (None, 10, 256)           0         
                                                                 
 lstm_3 (LSTM)               (None, 192)               344832    
                                                                 
 dropout_4 (Dropout)         (None, 192)               0         
                                                                 
 dense_2 (Dense)             (None, 160)               30880     
                                                                 
 dropout_5 (Dropout)         (None, 160)               0         
                                                                 
 dense_3 (Dense)             (None, 7)                 1127      
                                                                 
=================================================================
Total params: 741,383
Trainable params: 741,383
Non-trainable params: 0
_________________________________________________________________

RLR LSTM Training History:
loss: [… accuracy: [… val_loss: [… val_accuracy: [… lr: [… RLR LSTM Tuning Information:
Hyperparameters: {'num_lstm_layers': 2, 'lstm_units_0': 256, 'dropout': 0.30000000000000004, 'dense_units': 160, 'l1_reg': 0.0010898427617324405, 'l2_reg': 2.9671375213130146e-05, 'optimizer': 'rmsprop', 'learning_rate': 0.0004401273755211673, 'clipvalue': 0.03868251538336863, 'lstm_units_1': 192, 'lstm_units_2': 64, 'tuner/epochs': 10, 'tuner/initial_epoch': 0, 'tuner/bracket': 0, 'tuner/round': 0}
Score: 0.5274903774261475

bilstm_2 Model Summary:
Model: "sequential_1"
_________________________________________________________________
 Layer (type)                Output Shape              Param #   
=================================================================
 bidirectional_2 (Bidirectio  (None, 10, 192)          150528    
 nal)                                                            
                                                                 
 bidirectional_3 (Bidirectio  (None, 10, 320)          451840    
 nal)                                                            
                                                                 
 bidirectional_4 (Bidirectio  (None, 384)              787968    
 nal)                                                            
                                                                 
 dense_2 (Dense)             (None, 224)               86240     
                                                                 
 dropout_1 (Dropout)         (None, 224)               0         
                                                                 
 dense_3 (Dense)             (None, 7)                 1575      
                                                                 
=================================================================
Total params: 1,478,151
Trainable params: 1,478,151
Non-trainable params: 0
_________________________________________________________________

bilstm_2 Training History:
loss: [… accuracy: [… val_loss: [… val_accuracy: [… lr: [… 1e-05, 1e-05, 1e-05, 1e-05, 1e-05, 1e-05, 1e-05, 1e-05]
…
