
LSTM Shuffled Model Summary:
Model: "sequential_1"
_________________________________________________________________
 Layer (type)                Output Shape              Param #   
=================================================================
 lstm_2 (LSTM)               (None, 10, 64)            41984     
                                                                 
 lstm_3 (LSTM)               (None, 10, 96)            61824     
                                                                 
 lstm_4 (LSTM)               (None, 224)               287616    
                                                                 
 dense_2 (Dense)             (None, 128)               28800     
                                                                 
 dropout_1 (Dropout)         (None, 128)               0         
                                                                 
 dense_3 (Dense)             (None, 7)                 903       
                                                                 
=================================================================
Total params: 421,127
Trainable params: 421,127
Non-trainable params: 0
_________________________________________________________________

LSTM Shuffled Training History:
loss: [… accuracy: [… val_loss: [… val_accuracy: [… LSTM Shuffled Tuning Information:
Hyp
…
