
Sequential Model Summary:
Model: "sequential"
_________________________________________________________________
 Layer (type)                Output Shape              Param #   
=================================================================
 flatten (Flatten)           (None, 990)               0         
                                                                 
 dense (Dense)               (None, 384)               380544    
                                                                 
 dropout (Dropout)           (None, 384)               0         
                                                                 
 dense_1 (Dense)             (None, 160)               61600     
                                                                 
 dropout_1 (Dropout)         (None, 160)               0         
                                                                 
 dense_2 (Dense)             (None, 64)                10304     
                                                                 
 dropout_2 (Dropout)         (None, 64)                0         
                                                                 
 dense_3 (Dense)             (None, 7)                 455       
                                                                 
=================================================================
Total params: 452,903
Trainable params: 452,903
Non-trainable params: 0
_________________________________________________________________

Sequential Training History:
loss: [… accuracy: [… val_loss: [… val_accuracy: [… Sequential Tuning Information:
Hyperparameters: {'num_layers': 3, 'units_0': 384, 'dropout_0': 0.2, 'units_1': 160, 'dropout_1': 0.1, 'units_2': 64, 'dropout_2': 0.1, 'units_3': 320, 'dropout_3': 0.2, 'units_4': 64, 'dropout_4': 0.4, 'tuner/epochs': 10, 'tuner/initial_epoch': 4, 'tuner/bracket': 1, 'tuner/round': 1, 'tuner/trial_id': '0020'}
Score: 0.24191151559352875

Shuffled Model Summary:
Model: "sequential_1"
_________________________________________________________________
 Layer (type)                Output Shape              Param #   
=================================================================
 flatten_1 (Flatten)         (None, 990)               0         
                                                                 
 dense_5 (Dense)             (None, 224)               221984    
                                                                 
 dropout_4 (Dropout)         (None, 224)               0         
                                                                 
 dense_6 (Dense)             (None, 64)                14400     
                                                                 
 dropout_5 (Dropout)         (None, 64)                0         
                                                                 
 dense_7 (Dense)             (None, 7)                 455       
                                                                 
=================================================================
Total params: 236,839
Trainable params: 236,839
Non-trainable params: 0
_________________________________________________________________

Shuffled Training History:
loss: [… accuracy: [… val_loss: [… val_accuracy: [… Shuffled Tuning Information:
Hyperparameters: {'num_layers': 2, 'units_0': 224, 'dropout_0': 0.1, 'units_1': 64, 'dropout_1': 0.1, 'units_2': 512, 'dropout_2': 0.1, 'units_3': 32, 'dropout_3': 0.5, 'tuner/epochs': 10, 'tuner/initial_epoch': 4, 'tuner/bracket': 2, 'tuner/round': 2, 'tuner/trial_id': '0012'}
…
